digital-curling/result/model.npz (npz, 159808 bytes, 6 tensors)

l0/b f4 [200]
00000000: 0000 0000 0000 0000 0000 0000 0000 0000
00000010: 0000 0000 0000 0000 0000 0000 0000 0000
00000020: 0000 0000 0000 0000 0000 0000 0000 0000
00000030: 0000 0000 0000 0000 0000 0000 0000 0000
00000040: 0000 0000 0000 0000 0000 0000 0000 0000
00000050: 0000 0000 0000 0000 0000 0000 0000 0000
00000060: 0000 0000 0000 0000 0000 0000 0000 0000
00000070: 0000 0000 0000 0000 0000 0000 0000 0000
00000080: 0000 0000 0000 0000 0000 0000 0000 0000
00000090: 0000 0000 0000 0000 0000 0000 0000 0000
000000a0: 0000 0000 0000 0000 0000 0000 0000 0000
000000b0: 0000 0000 0000 0000 0000 0000 0000 0000
000000c0: 0000 0000 0000 0000 0000 0000 0000 0000
000000d0: 0000 0000 0000 0000 0000 0000 0000 0000
000000e0: 0000 0000 0000 0000 0000 0000 0000 0000
000000f0: 0000 0000 0000 0000 0000 0000 0000 0000
00000100: 0000 0000 0000 0000 0000 0000 0000 0000
00000110: 0000 0000 0000 0000 0000 0000 0000 0000
00000120: 0000 0000 0000 0000 0000 0000 0000 0000
00000130: 0000 0000 0000 0000 0000 0000 0000 0000
00000140: 0000 0000 0000 0000 0000 0000 0000 0000
00000150: 0000 0000 0000 0000 0000 0000 0000 0000
00000160: 0000 0000 0000 0000 0000 0000 0000 0000
00000170: 0000 0000 0000 0000 0000 0000 0000 0000
00000180: 0000 0000 0000 0000 0000 0000 0000 0000
00000190: 0000 0000 0000 0000 0000 0000 0000 0000
000001a0: 0000 0000 0000 0000 0000 0000 0000 0000
000001b0: 0000 0000 0000 0000 0000 0000 0000 0000
000001c0: 0000 0000 0000 0000 0000 0000 0000 0000
000001d0: 0000 0000 0000 0000 0000 0000 0000 0000
000001e0: 0000 0000 0000 0000 0000 0000 0000 0000
000001f0: 0000 0000 0000 0000 0000 0000 0000 0000
00000200: 0000 0000 0000 0000 0000 0000 0000 0000
00000210: 0000 0000 0000 0000 0000 0000 0000 0000
00000220: 0000 0000 0000 0000 0000 0000 0000 0000
00000230: 0000 0000 0000 0000 0000 0000 0000 0000
00000240: 0000 0000 0000 0000 0000 0000 0000 0000
00000250: 0000 0000 0000 0000 0000 0000 0000 0000
00000260: 0000 0000 0000 0000 0000 0000 0000 0000
00000270: 0000 0000 0000 0000 0000 0000 0000 0000
00000280: 0000 0000 0000 0000 0000 0000 0000 0000
00000290: 0000 0000 0000 0000 0000 0000 0000 0000
000002a0: 0000 0000 0000 0000 0000 0000 0000 0000
000002b0: 0000 0000 0000 0000 0000 0000 0000 0000
000002c0: 0000 0000 0000 0000 0000 0000 0000 0000
000002d0: 0000 0000 0000 0000 0000 0000 0000 0000
000002e0: 0000 0000 0000 0000 0000 0000 0000 0000
000002f0: 0000 0000 0000 0000 0000 0000 0000 0000
00000300: 0000 0000 0000 0000 0000 0000 0000 0000
00000310: 0000 0000 0000 0000 0000 0000 0000 0000
0.0 0.0 0.0 0.0 0.0 0.0 0.0 0.0
0.0 0.0 0.0 0.0 0.0 0.0 0.0 0.0
0.0 0.0 0.0 0.0 0.0 0.0 0.0 0.0
0.0 0.0 0.0 0.0 0.0 0.0 0.0 0.0
0.0 0.0 0.0 0.0 0.0 0.0 0.0 0.0
0.0 0.0 0.0 0.0 0.0 0.0 0.0 0.0
0.0 0.0 0.0 0.0 0.0 0.0 0.0 0.0
0.0 0.0 0.0 0.0 0.0 0.0 0.0 0.0
0.0 0.0 0.0 0.0 0.0 0.0 0.0 0.0
0.0 0.0 0.0 0.0 0.0 0.0 0.0 0.0
0.0 0.0 0.0 0.0 0.0 0.0 0.0 0.0
0.0 0.0 0.0 0.0 0.0 0.0 0.0 0.0
0.0 0.0 0.0 0.0 0.0 0.0 0.0 0.0
0.0 0.0 0.0 0.0 0.0 0.0 0.0 0.0
0.0 0.0 0.0 0.0 0.0 0.0 0.0 0.0
0.0 0.0 0.0 0.0 0.0 0.0 0.0 0.0
0.0 0.0 0.0 0.0 0.0 0.0 0.0 0.0
0.0 0.0 0.0 0.0 0.0 0.0 0.0 0.0
0.0 0.0 0.0 0.0 0.0 0.0 0.0 0.0
0.0 0.0 0.0 0.0 0.0 0.0 0.0 0.0
0.0 0.0 0.0 0.0 0.0 0.0 0.0 0.0
0.0 0.0 0.0 0.0 0.0 0.0 0.0 0.0
0.0 0.0 0.0 0.0 0.0 0.0 0.0 0.0
0.0 0.0 0.0 0.0 0.0 0.0 0.0 0.0
0.0 0.0 0.0 0.0 0.0 0.0 0.0 0.0

l0/W f4 [200, 11]
00000000: dcb5 c2be b6e9 61be f9ec e13e 43b8 063f
00000010: 032c e43d a0df db3d a5e7 9b3c a77f e63e
00000020: d70d 81bf b5e7 a13d fd12 a73e 9de5 063e
00000030: 4267 49be bc29 62be c610 a93e 578a 71be
00000040: 8709 56bd 8468 eabd 169b 3abe 7ebd 5abd
00000050: 9600 b83e d87c 043e f74b 8f3e db1f 80be
00000060: f155 503e d84a 44be 5486 e6bd ae15 7ebe
00000070: 88b4 d3be 705a e63e 7d4e b13d 9b21 ecbe
00000080: 9b7b d13d 9cac bebe 0275 773d 539d 74be
00000090: 90f8 cfbe ba93 253f 1620 883d 4781 e83d
000000a0: 7feb e3bd 54cb 47be 9720 c73e 0f40 083c
000000b0: 156b dabc f141 6dbd 6d7b 8ebe e4b0 e3bd
000000c0: a8b5 05bf f56a 143c c9be bfbe 4d43 273f
000000d0: 67a1 d33e b076 07bf be62 97bd 9d18 ab3e
000000e0: 6f95 79bd f44f 1b3f 6879 90be 3529 52be
000000f0: 2f5e 4cbe abf7 b2bc cdf4 db3c 346f a1be
00000100: 36ea 20be 64db fcbd d0da 993e 21ae b7bd
00000110: 186b 60be c632 91bd b64e eabe 1b0c 143e
00000120: a6c6 f43d 9a42 29bd ae0e 60be 1309 efbe
00000130: 90fc a3bc 956e 073d ae81 dc3d 7a96 4cbe
00000140: d4f5 b53d ce7f 923e 75f8 2b3e 3e00 923e
00000150: 2751 453e 524b b4bc 0297 853e a83c 4e3b
00000160: 1500 37bf 1bc8 23be 93ef a8bc b974 1abe
00000170: a1cf 17bf f859 023e a680 56be 219b 04be
00000180: 6a1a ffbc 1b49 8abc 959c 2d3e 67ae aa3e
00000190: c0a6 493e 25d7 64be 923b 79be fabf 343f
000001a0: ff1e 0fbd 027f 393e d7e2 1c3f 5998 4e3e
000001b0: bdbf 16be 7f4a d33e c2f0 e0ba 4159 da3e
000001c0: 652b 9dbb cadb 1e3e b19a 22bf 24c9 a93d
000001d0: f53d 73bf b7d6 8ebe 399b 05be f67c dbbe
000001e0: 3fd3 4bbd 75d3 02be 12b6 cfbe 9b17 2e3e
000001f0: 75e8 22be 8ad0 133e 3d70 88be 29aa a93e
00000200: e152 9a3d 94a7 8cbe 5c84 c63e 95c7 63bd
00000210: 2ac5 e0be c80b 783d df7b 003e 900d a93d
00000220: ac85 98be a7ec c7be 7872 823e 8a07 8c3e
00000230: c11d 33bd b7bd f1bd e170 be3c 54c6 76be
00000240: 0b71 dd3e 4cb9 f3bd 636f a7bd 87a3 783e
00000250: e777 3dbd aa74 383f 2399 b03e 60f1 e0bd
00000260: b90c c7be f9fd a23e cdf9 2d3f 9179 57be
00000270: 3cfb bdbc a1b2 e83d 71fe 833e 7c88 15be
00000280: ffb9 a7bd d658 22bf 444b b9bd 4dad b43d
00000290: 1bb1 1dbf 81c2 2abd 6359 7fbe 626c bcbd
000002a0: 1d36 1e3e 9426 8b3e 4447 2e3e 2333 0abf
000002b0: ca48 0d3f cdb2 02bc 580c 0ebf d504 ed3e
000002c0: 7bfa 36bd 3383 9c3e fe3e aa3d 4b71 5a3e
000002d0: 4dc5 38be 94aa e6be 1b47 56be f432 ecbd
000002e0: 4d8e 77be 8c05 e0bd cfe1 a73e a682 883d
000002f0: 681f afbb 1a2e a3bd 70b4 5a3e 098f 903d
00000300: b0dd d73e 6cf2 d8be 743e 453e f4e3 0ebf
00000310: 99f4 2abe e189 6dbe 5856 e93d 0276 7f3e
00000320: 3012 bebe 134d 97be 9734 1abf 273a ff3d
00000330: 05b6 453e 977e 123e ac87 b0be ed5c 093e
00000340: 9919 9b3d c6ef ffbd 1dfb 0bbe 55f4 f7bd
00000350: aeb3 32be 0f5c f0be 9c69 0ebc 30ba 5dbd
00000360: f923 ca3d 36a4 c73e 8fc1 603d 84d3 ca3e
00000370: 6f4e 74be ead2 a7bd 6270 0f3e 2c6c 5cbd
00000380: d073 893e 1313 02be caba f73e 3783 b53c
00000390: 7e3d 7fbd d558 b7be f51a adbe b7f3 27bf
000003a0: 795b 503f 66a7 33bd 5259 26bf 326b 0b3d
000003b0: 6d73 083f 4ee8 03bf ce76 cabc 89d6 03bb
000003c0: d705 adbe 570b 803c 6bb5 62be 65f6 07bd
000003d0: 0cd5 6abd 013e 2bbf a0fe 9dbe 8fd8 a23e
000003e0: 5e89 0bbf 0a81 85be fa88 ddbd e1f1 4abc
000003f0: 04d9 75be 44fb 8dbe c3bd debe f7c2 fa3e
-0.38029373 -0.2206181 0.44126108 0.5262491 0.11141207 0.107360125 0.019031355 0.45019266
-1.0082349 0.07905523 0.32631674 0.13173528 -0.19668296 -0.22086233 0.3302061 -0.23587929
-0.05225518 -0.11445716 -0.18223223 -0.05340337 0.35937947 0.12938249 0.27987644 -0.25024304
0.20345284 -0.19169176 -0.1125609 -0.24812958 -0.41348672 0.44990873 0.086575486 -0.4611939
0.10228654 -0.37241066 0.06041432 -0.2388814 -0.40619326 0.6467854 0.06646745 0.11352783
-0.11128902 -0.19511157 0.38892052 0.008316054 -0.026662389 -0.057924215 -0.2782854 -0.111177236
-0.5223031 0.009058704 -0.37450245 0.6533707 0.41334078 -0.5291548 -0.073918805 0.33417216
-0.060933527 0.60668874 -0.28217626 -0.20523532 -0.19957803 -0.021846613 0.026850129 -0.31530154
-0.15714344 -0.12346533 0.30049753 -0.08968759 -0.21915853 -0.070897624 -0.45763177 0.14457743
0.11951952 -0.04132328 -0.218806 -0.4668661 -0.020017892 0.033064444 0.10766922 -0.19979277
0.088847786 0.28613132 0.16793998 0.2851581 0.19269238 -0.022008572 0.26091772 0.003146926
-0.714845 -0.15994303 -0.02062205 -0.15083589 -0.5930119 0.12729633 -0.20947513 -0.12949802
-0.031140525 -0.016880563 0.16954263 0.33336183 0.19692516 -0.22347696 -0.2433913 0.70605433
-0.03494167 0.18114856 0.6128363 0.20175304 -0.1472158 0.41267774 -0.0017161595 0.4264622
-0.004796433 0.1551353 -0.6351729 0.08290318 -0.95016414 -0.2789819 -0.13047494 -0.42868775
-0.049762007 -0.12775977 -0.40568596 0.17001192 -0.15908988 0.1443502 -0.2664813 0.33137634
0.07535339 -0.27471602 0.38772857 -0.055610258 -0.43900424 0.06055811 0.12547253 0.0825454
-0.29789484 -0.3904774 0.25477958 0.27349502 -0.043729547 -0.11803763 0.023247184 -0.24099094
0.43250307 -0.11900577 -0.08175542 0.2428113 -0.046256926 0.72053015 0.34491834 -0.10983539
-0.38876894 0.3183439 0.6795929 -0.21042468 -0.023191087 0.11362196 0.2578006 -0.14602846
-0.08189773 -0.634168 -0.09047559 0.08822117 -0.61598366 -0.0416894 -0.24936442 -0.0920036
0.1545033 0.2717787 0.17019373 -0.5398428 0.5518919 -0.0079772 -0.55487585 0.4629275
-0.04467247 0.30568847 0.08312796 0.2133228 -0.18044014 -0.45052016 -0.20925562 -0.11533156
-0.24175377 -0.10938558 0.32789466 0.06665544 -0.00534432 -0.079677776 0.21357894 0.07058532
0.42161322 -0.42372453 0.19262105 -0.5581658 -0.16694869 -0.23197128 0.11393422 0.2494736
-0.3712325 -0.2955099 -0.60236496 0.124622636 0.19307716 0.14306103 -0.3447851 0.13414355
0.07573242 -0.12496905 -0.13670011 -0.121071495 -0.17451355 -0.46945235 -0.008692171 -0.05413264
0.098701425 0.3899247 0.05487209 0.396145 -0.23858045 -0.081945255 0.14007714 -0.0538141
0.2684617 -0.12702589 0.48384696 0.022157295 -0.062314503 -0.3580996 -0.3380963 -0.65606254
0.81389576 -0.043860815 -0.6498004 0.034037776 0.53301126 -0.51526344 -0.024714854 -0.0020116887
-0.33793518 0.015630407 -0.22139518 -0.033193965 -0.057332084 -0.66891485 -0.30858326 0.31805846
-0.5450648 -0.26075011 -0.10817142 -0.01238677 -0.24008566 -0.27730763 -0.43504152 0.4897687

l1/b f4 [200]
00000000: 0000 0000 0000 0000 0000 0000 0000 0000
00000010: 0000 0000 0000 0000 0000 0000 0000 0000
00000020: 0000 0000 0000 0000 0000 0000 0000 0000
00000030: 0000 0000 0000 0000 0000 0000 0000 0000
00000040: 0000 0000 0000 0000 0000 0000 0000 0000
00000050: 0000 0000 0000 0000 0000 0000 0000 0000
00000060: 0000 0000 0000 0000 0000 0000 0000 0000
00000070: 0000 0000 0000 0000 0000 0000 0000 0000
00000080: 0000 0000 0000 0000 0000 0000 0000 0000
00000090: 0000 0000 0000 0000 0000 0000 0000 0000
000000a0: 0000 0000 0000 0000 0000 0000 0000 0000
000000b0: 0000 0000 0000 0000 0000 0000 0000 0000
000000c0: 0000 0000 0000 0000 0000 0000 0000 0000
000000d0: 0000 0000 0000 0000 0000 0000 0000 0000
000000e0: 0000 0000 0000 0000 0000 0000 0000 0000
000000f0: 0000 0000 0000 0000 0000 0000 0000 0000
00000100: 0000 0000 0000 0000 0000 0000 0000 0000
00000110: 0000 0000 0000 0000 0000 0000 0000 0000
00000120: 0000 0000 0000 0000 0000 0000 0000 0000
00000130: 0000 0000 0000 0000 0000 0000 0000 0000
00000140: 0000 0000 0000 0000 0000 0000 0000 0000
00000150: 0000 0000 0000 0000 0000 0000 0000 0000
00000160: 0000 0000 0000 0000 0000 0000 0000 0000
00000170: 0000 0000 0000 0000 0000 0000 0000 0000
00000180: 0000 0000 0000 0000 0000 0000 0000 0000
00000190: 0000 0000 0000 0000 0000 0000 0000 0000
000001a0: 0000 0000 0000 0000 0000 0000 0000 0000
000001b0: 0000 0000 0000 0000 0000 0000 0000 0000
000001c0: 0000 0000 0000 0000 0000 0000 0000 0000
000001d0: 0000 0000 0000 0000 0000 0000 0000 0000
000001e0: 0000 0000 0000 0000 0000 0000 0000 0000
000001f0: 0000 0000 0000 0000 0000 0000 0000 0000
00000200: 0000 0000 0000 0000 0000 0000 0000 0000
00000210: 0000 0000 0000 0000 0000 0000 0000 0000
00000220: 0000 0000 0000 0000 0000 0000 0000 0000
00000230: 0000 0000 0000 0000 0000 0000 0000 0000
00000240: 0000 0000 0000 0000 0000 0000 0000 0000
00000250: 0000 0000 0000 0000 0000 0000 0000 0000
00000260: 0000 0000 0000 0000 0000 0000 0000 0000
00000270: 0000 0000 0000 0000 0000 0000 0000 0000
00000280: 0000 0000 0000 0000 0000 0000 0000 0000
00000290: 0000 0000 0000 0000 0000 0000 0000 0000
000002a0: 0000 0000 0000 0000 0000 0000 0000 0000
000002b0: 0000 0000 0000 0000 0000 0000 0000 0000
000002c0: 0000 0000 0000 0000 0000 0000 0000 0000
000002d0: 0000 0000 0000 0000 0000 0000 0000 0000
000002e0: 0000 0000 0000 0000 0000 0000 0000 0000
000002f0: 0000 0000 0000 0000 0000 0000 0000 0000
00000300: 0000 0000 0000 0000 0000 0000 0000 0000
00000310: 0000 0000 0000 0000 0000 0000 0000 0000
0.0 0.0 0.0 0.0 0.0 0.0 0.0 0.0
0.0 0.0 0.0 0.0 0.0 0.0 0.0 0.0
0.0 0.0 0.0 0.0 0.0 0.0 0.0 0.0
0.0 0.0 0.0 0.0 0.0 0.0 0.0 0.0
0.0 0.0 0.0 0.0 0.0 0.0 0.0 0.0
0.0 0.0 0.0 0.0 0.0 0.0 0.0 0.0
0.0 0.0 0.0 0.0 0.0 0.0 0.0 0.0
0.0 0.0 0.0 0.0 0.0 0.0 0.0 0.0
0.0 0.0 0.0 0.0 0.0 0.0 0.0 0.0
0.0 0.0 0.0 0.0 0.0 0.0 0.0 0.0
0.0 0.0 0.0 0.0 0.0 0.0 0.0 0.0
0.0 0.0 0.0 0.0 0.0 0.0 0.0 0.0
0.0 0.0 0.0 0.0 0.0 0.0 0.0 0.0
0.0 0.0 0.0 0.0 0.0 0.0 0.0 0.0
0.0 0.0 0.0 0.0 0.0 0.0 0.0 0.0
0.0 0.0 0.0 0.0 0.0 0.0 0.0 0.0
0.0 0.0 0.0 0.0 0.0 0.0 0.0 0.0
0.0 0.0 0.0 0.0 0.0 0.0 0.0 0.0
0.0 0.0 0.0 0.0 0.0 0.0 0.0 0.0
0.0 0.0 0.0 0.0 0.0 0.0 0.0 0.0
0.0 0.0 0.0 0.0 0.0 0.0 0.0 0.0
0.0 0.0 0.0 0.0 0.0 0.0 0.0 0.0
0.0 0.0 0.0 0.0 0.0 0.0 0.0 0.0
0.0 0.0 0.0 0.0 0.0 0.0 0.0 0.0
0.0 0.0 0.0 0.0 0.0 0.0 0.0 0.0

l1/W f4 [200, 200]
00000000: 5ee5 c63d fe8e 46bd 78c8 87bd 8808 e33d
00000010: c8b1 14be 6185 0ebe a1d1 8dbc 2547 813d
00000020: 4bee b53d 7e94 1e3e 1db6 1bbd c6b4 0abc
00000030: 960c 1e3d 8e11 9bbb cf76 dbbd e8dc cabc
00000040: 4d9b f0bc 54fb 14be 9430 60bd 7d3e 283d
00000050: c58b 8e3d bd6e 223d fa99 f5bd a2c7 0b3d
00000060: 73a2 3abd 930c a0bb 0e61 b83d 0788 943d
00000070: 0159 66bd 82ee 303d d059 a93d 77b3 213e
00000080: 9316 d9bd 65e2 553d 0ac8 fd3d 9592 77bc
00000090: e645 db3d d548 d3bd 6797 f63d b745 953d
000000a0: 864c 08be 6b1d 0dbe 0bcd 2cbd a02c a83c
000000b0: b67f 83bd 95eb e4bc 9d10 5bbd 513b 8ebd
000000c0: 9442 e2bc 028e 77bd a1d4 09be 619c babd
000000d0: df22 4dbd 4893 a43d 3ba8 37bd 4790 53bd
000000e0: 70eb 223e 7dea ecbd b438 6ebd 3314 303e
000000f0: 18cc 543c 1b95 2d3d ea5e 4b3d b897 b43d
00000100: 5480 e2bc 1651 aebc f25d e7bc 0049 bebd
00000110: 16aa 953c e5f5 043e d78b 2fbd f39c 033d
00000120: 37e2 473d 39f0 d33d fa11 833d fa56 b93d
00000130: 0800 d8bd e51b 98bd bd57 79bc 7cb2 a6bd
00000140: cef3 62bd f64c 4a3d 8c8e 3f3d 8349 aabd
00000150: be0e 24bb 77fb 863d 2f71 2c3c cd37 e4ba
00000160: fe49 95bd d000 c9bc f458 823c 1b84 523d
00000170: c205 9a3d 63c2 3abd 9955 c4bd 4782 f2bd
00000180: 1cd7 453d e04c 203d 913c aa3d 75bf 38bd
00000190: d5c4 c43c 7967 3d3d 178e 4abd 0666 8c3c
000001a0: cce3 163d e248 d13d bf95 6dbd 89c4 f83d
000001b0: f64c 353d 45a2 8b3d 6be8 21bd ced7 a43d
000001c0: 4493 61bd d62d 0abd 6536 2eba 9919 adbc
000001d0: bc4d 69bd a47f 1b3d b414 a63c 83d2 15bd
000001e0: da3b 46bd d4e9 c53d 3c6f 823e 587c c6bd
000001f0: eed1 fb3d a648 073e 96cd 323d e86d b9bd
00000200: 137c 3bbd e88c 7e3c 562b c43d 75e0 04bd
00000210: 8214 c03c 1201 5bbd b717 643d a551 c3bd
00000220: f7a8 bebd c7e5 68bd e9bd 2ebd 30dc 3bbb
00000230: 44c7 a73c ee62 493c dc69 043d 9be3 b33b
00000240: 9fc4 18bd e641 99bb 1d9e 4ebd 8f1b 6dbd
00000250: ce8e 08be b6b1 0f3d b40c 813d 879a 8abb
00000260: 1a80 8c3d 8c9f 943d 1254 d9bc 60cc 69bc
00000270: d344 f63d 2251 e53c 31c6 a2bc 066d bfbc
00000280: 70e6 093e dc16 8abd cb04 86bc 8b52 633d
00000290: 8d86 9a3d 0ead fe3c 1543 543d 76a1 7bbc
000002a0: a144 4b3d 705a 2dbd 05a2 3d3d f8d6 28be
000002b0: 778a 96bc 81be 37be a0c6 b3bd 40dc 9fbd
000002c0: a98a 55bb 0f38 50bd 2998 ad3d 8c9c 8abc
000002d0: 6ff4 09be 4d5e b13d ef1f 9f3c 42e2 193d
000002e0: ba6c 30bc b28b 36be 0ff4 aebd 9008 873d
000002f0: bd83 ed3d 96de cdbc d0d6 c9bd f224 9abc
00000300: c4e0 043e a7ea 333d a073 333c febf 04be
00000310: 0433 023d 5965 8f3d 4755 7e3d 3c01 52bd
00000320: e2c2 83bc e485 4cbd 7342 083d fc12 30bd
00000330: a7c5 d6bc 2c98 193d e681 d3bd 207c e3bc
00000340: 2231 cf3d efce 523d 3bb1 b13d 0b96 84bd
00000350: 5573 a0bd 7ea3 493d 56a4 bcbd 5eea 3ebd
00000360: b6c7 c7bc f948 083d 4ac3 6fbd cd65 d73b
00000370: b699 e3b9 9f8a 6d3d a2a5 643d d36a 83bd
00000380: c22b b3bd b8c4 b23d 152b 62bd 9811 89bd
00000390: af5d 8cbd 25b1 163d 837a ab3d 6e18 4ebd
000003a0: 3b4a f53d 64c4 f1bc c65a d6bd 2b04 0fba
000003b0: d18c 58bd f025 06bc 35cd 75bb f585 bc3c
000003c0: af01 c3bc c7c0 4f3b e863 923c 4a98 0cbc
000003d0: 19f3 ddbc efb6 863d 072e abbd 5903 cdba
000003e0: a728 b7bd 7e09 193d 2049 873c 7f6d a7bd
000003f0: 56a2 07bd 4682 c83d 3632 62bd c9ff 8fbd
0.09711717 -0.04847621 -0.06630033 0.110856116 -0.14520943 -0.13918068 -0.017311873 0.06312398
0.088833414 0.15486333 -0.038015474 -0.008465951 0.03858622 -0.0047323173 -0.1071602 -0.02476354
-0.029370928 -0.14548999 -0.054733828 0.04107522 0.06960253 0.03965639 -0.11992259 0.03412593
-0.04556508 -0.0048843115 0.09002887 0.07252508 -0.056237224 0.04319621 0.082690835 0.15791117
-0.10600009 0.05221786 0.1239167 -0.0151106315 0.107066914 -0.10316626 0.120405965 0.07288688
-0.13310441 -0.13780753 -0.04218773 0.020529091 -0.06420843 -0.027944366 -0.05348264 -0.069449075
-0.027619638 -0.060438164 -0.13460018 -0.09111858 -0.050082084 0.08035904 -0.04483817 -0.051651265
0.15910125 -0.115681626 -0.058159545 0.17195205 0.012988113 0.042378526 0.049651064 0.088180006
-0.027649082 -0.0212789 -0.028243039 -0.092912674 0.01826958 0.12984426 -0.04285797 0.0321321
0.04879972 0.10348553 0.06399913 0.090497926 -0.10546881 -0.074271955 -0.015218672 -0.08139512
-0.05540829 0.049389802 0.046766803 -0.083148025 -0.00250332 0.06590932 0.010525032 -0.001741165
-0.072895035 -0.02453652 0.015911557 0.051395517 0.075206295 -0.045595538 -0.09586639 -0.11841255
0.048300847 0.039135814 0.083123334 -0.045104463 0.024019638 0.046241257 -0.049451914 0.017138492
0.036838338 0.102189794 -0.058004137 0.12146861 0.04426285 0.0681806 -0.03952829 0.08048974
-0.055072084 -0.03373512 -0.00066456787 -0.02113037 -0.0569589 0.037963524 0.020273544 -0.036577713
-0.048396923 0.0966374 0.2547549 -0.096916854 0.122959 0.13211307 0.043653093 -0.09054166
-0.045772623 0.015536524 0.09578578 -0.03244062 0.023447279 -0.053467818 0.05568668 -0.09537057
-0.09309571 -0.056859758 -0.04266158 -0.0028665178 0.02048076 0.012291653 0.032327518 0.005489779
-0.037296887 -0.004677045 -0.050443757 -0.05788761 -0.13335726 0.035081588 0.06301251 -0.004229847
0.06860371 0.07256994 -0.026529346 -0.014269918 0.12024846 0.027992789 -0.019869896 -0.023367416
0.13466811 -0.06742641 -0.016359707 0.05549864 0.07545195 0.031088378 0.051821787 -0.0153583195
0.049625997 -0.042322576 0.046297092 -0.16488254 -0.018376572 -0.17943765 -0.08778119 -0.07805681
-0.0032583869 -0.05083471 0.08476288 -0.01692035 -0.1347215 0.086605646 0.019424407 0.037569292
-0.01076811 -0.17826727 -0.08542644 0.0659343 0.11597393 -0.025130551 -0.09855425 -0.018816445
0.12976366 0.043924954 0.01095286 -0.12963864 0.031786934 0.070017524 0.062093046 -0.05127071
-0.016084138 -0.049932376 0.033266496 -0.042986855 -0.026217295 0.037498638 -0.103275105 -0.027769148
0.10116793 0.05146688 0.08676382 -0.06473931 -0.07834498 0.049228184 -0.09211032 -0.04661023
-0.024387222 0.033272717 -0.05853585 0.006573415 -0.00043411338 0.057993528 0.055822022 -0.064168595
-0.087485805 0.087289274 -0.055216867 -0.06692809 -0.06853806 0.036790032 0.08372977 -0.050316267
0.11977049 -0.029512592 -0.104665324 -0.0005455638 -0.052868668 -0.008187756 -0.0037506346 0.023013094
-0.023804514 0.0031700598 0.017869905 -0.00858123 -0.027093457 0.065778606 -0.083583884 -0.0015641256
-0.08943301 0.037362568 0.01651436 -0.081751816 -0.0331138 0.09790473 -0.055223666 -0.07031209

l2/b f4 [3]
00000000: 0000 0000 0000 0000 0000 0000
0.0 0.0 0.0

l2/W f4 [3, 200]
00000000: f0ee e7bd 8592 b4bc 182d 9f3b 084e a7bc
00000010: 80b9 d23a 56ef a0bd a96a 98bc 5b2a 433d
00000020: 9a23 84bc e4d3 d83d 71e6 d33d d363 8bbd
00000030: 16d1 b63d ce33 ae3a b7d4 2f3d 2b70 763d
00000040: 5d25 723d 6aec 61bd 7ea9 72bd 3f7b 9ebc
00000050: 1338 883d 34cc 303d 8754 623c 1395 de3d
00000060: 7ab6 663d 5db4 4cbd 1be5 c3bd 5e72 a8bd
00000070: bd62 1f3d 9163 bc3d a307 a73c a6bb 993c
00000080: 3301 84bd ebed 023e 6311 cebd 9ffa e2bd
00000090: 0f09 ecbc 4bf7 903d 274e 9e3c 1eed aebd
000000a0: f765 94bd 8f2b bf3d b8f7 e0bd 4f1e 2b3d
000000b0: 4248 0c3b 79ca 17be a603 143e f3ac 003d
000000c0: 7a3a f23c 6103 6a3d 84c8 46bd 7b00 b13b
000000d0: 9824 a3bc 8efe 8c3d 2701 b4bd c339 1abd
000000e0: 3ffd f8bd 9eee 013e 769c a4bd aafe 06bd
000000f0: c0cb 36bd e6f0 82bc bc8e 003d f75b 8b3d
00000100: 481f 2abd 9f06 a23c bf66 dabc 5042 603d
00000110: 8dab d23c 2f2b e53d b2a3 87bd 3d37 93bd
00000120: 37d1 03be 28f8 1abc 4f86 ca3b 3b7e df3d
00000130: f2cc efbc 0b4c dbbd 83a6 ec3d ff11 f9bd
00000140: c69f 05be e777 58bc 6259 273d a71b 813c
00000150: b546 a5bc 0761 62bd 9532 893d c805 99bb
00000160: 3a46 123d c4d3 dbbb 6dc0 adbd 7c89 0c3c
00000170: 073b 8cbc 50b8 813d 4339 d6bd fe63 053d
00000180: e859 9cbc a96e cd3c 1add 6d3c e300 833d
00000190: b314 cbbd 07fe 94bd ae80 a9bb ec98 f4bd
000001a0: 1e9d ccbc a84a 2b3d 2c4f 483d 67b0 fcbc
000001b0: e914 013d dfaa 333c 132a 173d a68b cebd
000001c0: d50e fd3c d00e 04bd f3a5 0cbe e3bc 18bd
000001d0: d18c a1bc 5847 f83b 8088 ecbd a6fd f2bc
000001e0: fa36 183e 6917 9b3d 215f aabd 3943 1cbd
000001f0: 6426 8f3c f415 bfbd 5986 b53c 6fc4 93bd
00000200: 7316 323d 7f48 49bd d4e8 86bd b42d 273d
00000210: 1794 a0bd 2495 babd c39d 263c b7a9 393d
00000220: 1863 2f3e 85dd 19be 4bbd 0fbe af6e 9e3c
00000230: 69bd 48b9 e8e3 c9bb a2f7 ddbd f650 063d
00000240: 837e a03b 80e4 743d 29fc 38bc 6ec9 043e
00000250: 70ca b83d 3ae3 07bd 3451 8c3d 2124 923b
00000260: 49dc dc3c 8ebf c73d 11af 063d 5b49 2ebe
00000270: 4e2c b7bd de2b dbbd e54a d8bc ebda 6bbd
00000280: f05b 163e 0dac 393d 5fbc ad3d fe8a 3a3d
00000290: a2af 33be b81c 7e3d f72f 23bd 7eb2 71bd
000002a0: c0e9 a23d c53e 203d 9a68 54bc 4d0f 71bd
000002b0: 1a9b 513c 6ec8 6e3d 7245 7dbd 9f7a 5dbc
000002c0: ffed e43d 8008 143c f42c be3d 39a6 f3bc
000002d0: c220 073e 9676 58bd 24a0 293d 2584 263d
000002e0: bb39 c03c 721f 8b3d ffe0 76bd cee5 5fbd
000002f0: 5cb3 97bd c0b5 0bbe 4063 b5bc a450 e73d
00000300: 54f2 f03b 8a2a e13d d7d5 84bd f7f4 acbd
00000310: 92ed 573c 7189 19bd d37e a23c 653a 03bd
00000320: d308 e43c 736d 9ebd 6188 173d 8d8b ddbc
00000330: 7bdf d73d b37a 7cbd 9449 923d cac5 653d
00000340: 409e 3ebd 749b d53d 1d4e 1d3c 0678 f5bd
00000350: cc92 4dbc 7288 d63d e226 9dbc 30fc 083d
00000360: 9e34 75bd 13e3 853c 50e8 8e3d 5682 d4bc
00000370: 3b38 d6bd ac44 d5bc 6dfa 1bbd cf15 7a3c
00000380: dae4 e7bc 9df2 243d 8f2f a0bd 54b6 f1bd
00000390: fd72 183c 5892 94bb ea17 f6bd 4437 0739
000003a0: e178 3cbd 9d48 333d 976e febd a31f 833d
000003b0: bb59 adbc ecd2 cd3c 24ce ae3b dd17 40bd
000003c0: 7d15 043e 236e 553d 167e 893d 513c 97bc
000003d0: a954 74bd 9b39 943a 94ba 8dbd 1c5a f53d
000003e0: fae3 683c 73ce 933c a9f5 96bd f88b babd
000003f0: 88c8 d3bc 73fe 6b3d 8b8c ffbc aa59 0dbd
-0.113248706 -0.022042522 0.0048576705 -0.02042295 0.0016077012 -0.0785815 -0.018605547 0.047647815
-0.016130257 0.1058729 0.103466876 -0.06806149 0.08926599 0.0013290585 0.04292747 0.060165565
0.059117664 -0.055157103 -0.05924367 -0.019345878 0.0665132 0.043163493 0.013814098 0.108682774
0.056326367 -0.049976695 -0.09565183 -0.08224939 0.038912524 0.09198678 0.020389384 0.018766236
-0.06445541 0.12786071 -0.1006191 -0.110829584 -0.028812913 0.070784174 0.019324375 -0.0854132
-0.07246011 0.0933448 -0.109847486 0.04177695 0.0021405374 -0.14823331 0.14454517 0.031414937
0.0295689 0.05713213 -0.04853107 0.0054016686 -0.01991491 0.0688449 -0.08789282 -0.037652742
-0.12157678 0.12688681 -0.08037655 -0.03295771 -0.044627905 -0.01598401 0.031386122 0.0680465
-0.04153374 0.019778548 -0.026660321 0.05475074 0.025716567 0.11189877 -0.06623019 -0.0718827
-0.12872778 -0.009458579 0.0061805616 0.109127484 -0.02927253 -0.107078634 0.11555197 -0.121616356
-0.1304923 -0.013212181 0.040856726 0.015760256 -0.020175317 -0.055268314 0.06699101 -0.0046698786
0.035711505 -0.006708594 -0.08483968 0.008577701 -0.01711799 0.06333983 -0.104601406 0.032566063
-0.01908584 0.025077181 0.014518047 0.063966535 -0.099160574 -0.07275014 -0.0051728105 -0.1194323
-0.024977263 0.041819245 0.04890363 -0.030845834 0.031514082 0.010966032 0.03690536 -0.100852296
0.030890862 -0.03224069 -0.1373518 -0.03728951 -0.019720467 0.007576864 -0.11549473 -0.029661965
0.14864722 0.075728245 -0.08318926 -0.038150046 0.01747436 -0.09330359 0.022158789 -0.07215201
0.04347844 -0.049141403 -0.06587377 0.04081507 -0.07840746 -0.091104776 0.010169449 0.04532787
0.17127645 -0.15025909 -0.14037053 0.019339887 -0.00019144047 -0.0061612017 -0.10838248 0.032792054
0.004897894 0.059788227 -0.011290588 0.12967464 0.09022987 -0.033175685 0.06851426 0.0044598733
0.026960509 0.09753333 0.0328818 -0.1702017 -0.08943997 -0.107017264 -0.0264029 -0.057581823
0.14683509 0.045330096 0.084831946 0.04554271 -0.17547467 0.062039107 -0.039840665 -0.059008114
0.079547405 0.03912236 -0.012964392 -0.058852483 0.012793327 0.058296613 -0.061833806 -0.013518005
0.11178207 0.00903523 0.09285918 -0.029742347 0.1319609 -0.052847467 0.041412488 0.040653367
0.023465028 0.06793107 -0.060273167 -0.05466252 -0.07407257 -0.13643551 -0.022142053 0.11294678
0.0073531065 0.10994442 -0.06486099 -0.08445161 0.0131792 -0.03748459 0.019835865 -0.03203811
0.027836239 -0.077357195 0.036995295 -0.027044082 0.105406724 -0.061640453 0.0714294 0.05609683
-0.046537638 0.10430041 0.009601143 -0.11985783 -0.012547206 0.10475244 -0.01918358 0.03344363
-0.059864633 0.016343629 0.06977904 -0.025941055 -0.10459944 -0.026033722 -0.03808062 0.015263989
-0.028307367 0.040270437 -0.07821571 -0.118023545 0.009304759 -0.004534047 -0.1201628 0.00012895191
-0.046013717 0.04377042 -0.12423437 0.064025186 -0.02116095 0.02512499 0.0053346325 -0.046897758
0.12898822 0.052106988 0.06713502 -0.018461378 -0.05965105 0.0011308672 -0.069203526 0.119800776
0.01421451 0.018042779 -0.07371075 -0.09108728 -0.025852457 0.05761571 -0.031194946 -0.03450934
